skin-cancer-detection/model/cnn_model.pth (torch, 135008 bytes, 4 tensors)

conv1.weight f4 [16, 3, 3, 3]
000000 25 1e c5 bb 8c da 27 bc b1 a9 05 3e d1 f9 b5 bb
       -0.0060155564 -0.010244977 0.13053013 -0.005553462
000010 36 0c 2a 3b 0a 9c f1 3d 65 6d b8 3c 85 65 33 3e
       0.002594722 0.1179734 0.0225131 0.17519195
000020 3a 01 8b bc 6c 16 aa bd e0 92 ea bd 23 ab f1 3d
       -0.016968358 -0.08305058 -0.114537954 0.1180022
000030 79 8a de 3c 88 39 b1 3d 9d e8 28 3e 1c 09 a5 3d
       0.027165638 0.08653551 0.16494985 0.08058378
000040 8b 08 4c 3d 7a 10 9b bd 7b 18 ae 3d 92 60 0a 3e
       0.049812835 -0.07571502 0.08500763 0.13513401
000050 c8 42 43 be 1f ea 14 3e dc cd 22 3d 1f 90 39 3e
       -0.19068444 0.14542435 0.039747104 0.18121384
000060 d3 fc c0 3b 60 37 56 3d 8c 3c 0b 3e ce 7a 3f be
       0.005889514 0.052298903 0.13597316 -0.1869919
000070 17 76 19 3d 2e 7c 9a bd 11 ff 0d 3e c2 77 90 3d
       0.037466135 -0.07543217 0.13866831 0.07054092
000080 d9 a5 d7 3d d1 65 51 3c d4 88 bb bd 0b 51 19 3a
       0.1052968 0.012780623 -0.09156957 0.0005848563
000090 14 9f 7d 3d 0b db 96 3d 8e 24 b1 3b a2 dd 34 be
       0.061919287 0.07365998 0.005405969 -0.17662671
0000a0 5f 5d db bd be 82 2b be ac 9e 4f 3d 74 eb 2a bc
       -0.107111685 -0.16749093 0.05068843 -0.010432113
0000b0 f0 c7 7b bd b4 6c d9 3c 92 f3 d3 3c bd 86 2e 3e
       -0.061469972 0.026541092 0.02587298 0.17043586
0000c0 13 23 fa 3d 12 33 02 be 03 0f aa bd f6 20 77 bd
       0.12213721 -0.12714794 -0.083036445 -0.06033417
0000d0 03 9c 37 3a 22 66 c1 3d 95 92 a0 bd aa 68 d9 bc
       0.00070041436 0.094433084 -0.07840458 -0.026539166
0000e0 ab 8a 09 bb 93 d0 1e 3d 16 fa ab bd 3e 9a 72 bd
       -0.0020987194 0.03877313 -0.083973095 -0.059229128
0000f0 ff 7f e9 3d c5 6b 36 3d f8 c5 0b 3e 3a e5 7d bd
       0.114013664 0.04453637 0.13649738 -0.061986186
000100 c5 ac 99 bd 6d fd f0 bd a3 51 3b be c9 63 c8 bc
       -0.07503656 -0.11767087 -0.1829286 -0.024461644
000110 ca 2b 38 be e2 d4 3c be aa f8 28 be f6 1a 85 bd
       -0.17985454 -0.18440583 -0.16501108 -0.06499283
000120 c7 43 14 3a 41 33 8a 3d 07 52 d4 bd 5a 20 bd bc
       0.00056558516 0.06748057 -0.10367208 -0.023086715
000130 73 40 8a bd 86 84 36 be 7d 4e 8e 3d 9c bf 38 be
       -0.06750574 -0.17823991 0.06948564 -0.18041843
000140 46 96 47 bd 83 91 20 3c 97 e9 a1 bd e9 0b f3 3d
       -0.048727296 0.009800318 -0.07905882 0.11867506
000150 d0 65 bb bc 93 ed 64 3d a7 63 cf bd 8b 8f da bd
       -0.022875696 0.05589063 -0.10126429 -0.1067191
000160 62 db 42 be 58 c3 3f 3e 54 72 d8 bd 23 43 7d 3d
       -0.19029 0.18726861 -0.10568681 0.061831605
000170 3f 92 32 3e 1a a1 8b bc 40 1d 4f 3d 30 cb e6 3c
       0.17438601 -0.017044593 0.050565004 0.02817306
000180 da ea 20 3e f3 7a 5d bd a5 86 c5 bc 8f b8 20 be
       0.15714589 -0.05407233 -0.024112055 -0.15695404
000190 b9 de 26 3d dd 7b 04 3e 69 b7 d2 3d ac 0f b8 3b
       0.04073975 0.12937875 0.10288889 0.0056171026
0001a0 3e 8b 7b 3d 2a 55 36 be 44 20 b9 bd 1b 12 8a 3c
       0.06141209 -0.17805925 -0.09039357 0.016854336
0001b0 51 58 0e 3e f6 d7 17 be 77 bb 27 3a e4 26 43 bd
       0.13900878 -0.14828476 0.0006398479 -0.04764451
0001c0 4f a6 b2 bd de f8 3f 3e 42 5a ff bd df 71 3f be
       -0.08723127 0.18747279 -0.12468387 -0.18695782
0001d0 0b 83 df bd 51 88 0f 3e 56 e8 ba 3c bc 78 07 3e
       -0.10913666 0.14016844 0.022815865 0.1322965
0001e0 c1 71 25 be 25 6e dc 3d be 8b 18 be 96 24 a0 bd
       -0.16156675 0.10763196 -0.14897057 -0.07819478
0001f0 1d 5a 44 be 31 05 4b bd 87 3e d0 3d de 34 11 3e
       -0.19175 -0.049565498 0.10168176 0.14180323
000200 19 d7 2d 3e 0f 18 fc bd 1d 0e 85 3d 7f 84 c2 bd
       0.16976584 -0.12309276 0.064968325 -0.09497928
000210 c5 61 05 3d 52 c2 0c 3e d6 2f 58 bc 37 07 1b 3e
       0.032563943 0.13746002 -0.013194999 0.15139471
000220 4f dd 1b 3e 38 a7 1a 3b 23 17 11 3e 9f 90 8e 3c
       0.15221141 0.0023598205 0.14168982 0.017402945
000230 4f 48 39 3d df 35 25 3e e2 ee 81 3b d3 48 16 3e
       0.045234974 0.16133831 0.0039652446 0.14676218
000240 59 93 10 3e 78 18 83 3d 55 34 9b 3d 2c 1a da 3d
       0.14118709 0.064011514 0.07578341 0.10649523
000250 de eb 76 bd 81 b1 27 be 6e a0 ea bd 62 17 fc 3d
       -0.060283534 -0.16376306 -0.11456381 0.123091474
000260 c2 1c 44 3e bd 08 06 be 55 2c 3a be a6 3a 84 bd
       0.19151595 -0.13089271 -0.18180974 -0.06456499
000270 ba 00 f2 bd 92 2b 93 3a 4d 64 8d 3c 2e 49 41 be
       -0.11816545 0.0011228195 0.017259741 -0.18875572
000280 02 af f6 3c 92 96 07 be 4b d1 a5 3c 03 36 37 bd
       0.030112747 -0.13241032 0.0202414 -0.044729244
000290 5c 7b 0c be 25 85 24 be 33 cf 08 bd 49 b6 94 3c
       -0.13718933 -0.16066416 -0.033400726 0.018153327
0002a0 c2 17 9c 3d 20 c9 91 3c ba bb ba bd 65 c4 3f be
       0.07621719 0.0177961 -0.09117837 -0.18727262
0002b0 71 d3 cd bc f2 53 6a 3c 13 ba 05 3e 06 1e 05 3e
       -0.025125237 0.014302241 0.13059263 0.12999734
0002c0 82 2c 50 3c 2c 26 b7 bd da 52 8a 3d 9b 73 15 bd
       0.012705924 -0.089428276 0.06754084 -0.036487203
0002d0 2d a0 e4 bd 7b 6f 8a bd 37 58 ba 3d 7e b7 42 be
       -0.111633636 -0.067595445 0.09098857 -0.19015309
0002e0 9f 4a 9b bd be 10 a4 3c d1 1c 76 bd b8 86 36 3e
       -0.07582592 0.020027515 -0.060086075 0.17824829
0002f0 89 c4 2b 3b 54 b5 3c bd b2 3d 1d 3e e4 e8 17 3e
       0.0026209673 -0.046071365 0.15355566 0.14834934
000300 2b 0c e4 bc 66 31 58 bd 70 0b 45 be 57 9f 9c 3d
       -0.027837833 -0.052781485 -0.19242644 0.07647579
000310 25 fe 19 be ee 18 a2 bd eb f9 d6 3d 33 0e 10 bd
       -0.15038355 -0.07914911 0.10496887 -0.03516979
000320 76 88 39 be 55 12 fe 3d d0 3b 02 be 11 1e ab bb
       -0.18118462 0.1240584 -0.12718129 -0.00522209
000330 ee 3a 13 be a2 4e 1f be e6 8a 9d 3d 54 ef 2d 3e
       -0.14377949 -0.1555734 0.076925084 0.16985828
000340 a7 33 be bd d8 7f ad bd 70 a9 14 be 16 8d 8b bc
       -0.09287196 -0.0847165 -0.1451776 -0.017035048
000350 10 e4 6d bc 63 5d 15 be 9d 26 e0 bd fe f3 9f 3a
       -0.014519706 -0.14586405 -0.10944865 0.0012203453
000360 b0 c6 c9 bd 0b d0 e0 3d 10 cb 25 be 1e 98 3a 3e
       -0.0985235 0.10977181 -0.16190743 0.1822209
000370 54 2e ef 3d ab 8c d1 bd 19 67 1c 3d 46 13 27 be
       0.11678758 -0.102319084 0.03818426 -0.16315946
000380 c0 4f 02 be 65 20 34 be 44 8c 0b 3e cd 2d 32 3e
       -0.12725735 -0.17590483 0.13627726 0.17400284
000390 0a 3f 25 3e 2c 57 1b be 28 88 0c be 77 1c a9 3c
       0.16137329 -0.15169972 -0.13723814 0.020643456
0003a0 b9 1a 24 3e b8 60 31 3d 7a 14 2d 3e 55 22 d5 bd
       0.16025819 0.04330513 0.16902342 -0.10406939
0003b0 b2 9c c0 bd 29 5b 36 be f9 4d 37 3c ee ef 1f 3e
       -0.09404887 -0.17808212 0.011188024 0.1561887
0003c0 3d ca fd 3c 42 76 bb 3d 83 e1 09 bd 77 67 03 be
       0.030980224 0.09153415 -0.03366233 -0.12832437
0003d0 8a ff 9f bb 24 1b 0c bd 3f b0 46 bd ea fd cf 3d
       -0.0048827576 -0.03420557 -0.048507925 0.10155852
0003e0 3d db 27 be dc c1 e5 3d 98 d4 b2 bd 22 f6 01 be
       -0.16392227 0.11218616 -0.08731955 -0.12691548
0003f0 ef a7 92 bb d4 e6 db 3c 3f 3b 87 3d 38 99 93 bd
       -0.0044755857 0.026843466 0.06603097 -0.072069585

conv1.bias f4 [16]
000000 4c 15 69 bd 09 c2 3e be 62 7b 1e be 28 f1 95 3d
       -0.056905076 -0.18628706 -0.15476754 0.073213875
000010 26 71 2d be ce 8a ad 3d 11 52 51 3d c6 93 44 3c
       -0.16937694 0.084737405 0.051103655 0.011998123
000020 f1 eb ab 3d 9d ac 08 be 97 28 5b 3a a4 40 b1 bd
       0.083946116 -0.13347097 0.00083602354 -0.08654907
000030 3e aa b2 3d 48 22 9a 3d a5 18 e6 3c 68 b3 99 3d
       0.08723877 0.0752607 0.028087923 0.07504922

fc1.weight f4 [2, 16384]
000000 00 0f c8 39 80 72 02 b9 c8 5d ee 3b d4 e6 fe bb
       0.00038158149 -0.0001244042 0.007274363 -0.0077789817
000010 08 93 86 bb e4 0f 50 3b 98 b4 89 3b f6 06 c3 bb
       -0.004106883 0.0031747753 0.0042024367 -0.0059517575
000020 40 62 38 b9 ec 46 67 bb f2 2a b4 bb 00 9e 20 38
       -0.00017584208 -0.0035290075 -0.0054982835 3.829412e-05
000030 80 13 8c ba d4 3d 76 3b 48 2a 33 3b 98 4e ad 3a
       -0.0010686964 0.0037573474 0.0027338434 0.0013222275
000040 30 2f d2 3a 50 db 13 3a 4c 0e a2 3b 26 b7 a9 bb
       0.0016035791 0.0005640285 0.004945552 -0.0051793037
000050 1c 8a 36 bb ae a0 c1 3b 38 c2 a2 bb 06 25 88 bb
       -0.0027853316 0.005909047 -0.0049670003 -0.004154804
000060 52 aa b2 3b 54 bb 5d bb 30 07 59 3a a0 e0 2d ba
       0.0054524327 -0.003383358 0.0008278964 -0.0006632898
000070 06 1a d3 bb 00 1e 05 39 e4 f6 05 bb 36 20 b7 3b
       -0.006442311 0.00012695044 -0.0020441348 0.0055885566
000080 20 e3 b9 ba 98 b7 fc ba aa 51 fa 3b e4 62 f0 bb
       -0.0014182068 -0.001928079 0.0076391296 -0.0073360074
000090 38 5f 49 bb 54 13 66 3b 00 ae 62 b8 52 71 fd bb
       -0.003072692 0.0035106735 -5.404465e-05 -0.007734456
0000a0 48 06 f9 ba 46 2c b0 3b 40 37 80 39 b8 9b 34 bb
       -0.0018999064 0.0053763716 0.00024455227 -0.0027558636
0000b0 00 5e 65 38 96 db 99 3b 50 a3 51 ba d2 c9 be bb
       5.46854e-05 0.004695366 -0.0007997053 -0.0058223987
0000c0 5e a1 a3 3b e2 7c de bb ba 6e c8 bb 86 e4 a6 3b
       0.0049936017 -0.0067897895 -0.0061167153 0.00509316
0000d0 b0 ab ef bb ac 19 6f 3b 3c 6b 13 bb 80 aa 87 b9
       -0.007314168 0.0036483807 -0.0022494337 -0.0002587624
0000e0 d0 77 71 ba 9e 12 e0 bb 80 a4 eb b8 ac d5 c8 bb
       -0.0009211274 -0.006838157 -0.00011236314 -0.0061289873
0000f0 ec e7 f1 bb 3c f7 36 3b 18 05 b3 3b 2c 95 bf 3b
       -0.0073823836 0.002791836 0.0054632537 0.00584664
000100 1c 83 d3 bb 88 1b b2 3b ac 47 79 3b 30 7e 21 3a
       -0.0064548384 0.005435411 0.0038037105 0.0006160466
000110 d4 dd 36 bb 70 fe 22 3b dc 90 5d bb 98 db 97 3a
       -0.0027903216 0.0024870895 -0.0033808267 0.001158583
000120 62 4b a4 3b 8c 43 cc 3b dc 13 67 3b 24 e4 73 bb
       0.005013869 0.006233638 0.003525964 -0.003721484
000130 98 b0 b3 3b 50 7a ba 3a d0 74 a1 3b 78 28 eb bb
       0.005483698 0.0014227126 0.004927255 -0.007176455
000140 d8 af 08 bb 32 d4 fd 3b 50 de f7 3a dc 8e bb bb
       -0.0020856764 0.007746243 0.0018910859 -0.0057238173
000150 90 cd d3 3b 3e 40 bd bb 1c a1 86 bb 10 00 96 ba
       0.006463714 -0.0057754805 -0.004108561 -0.001144411
000160 c4 d0 50 bb 4c cd 63 3b fa e1 81 bb 50 66 3b bb
       -0.0031862715 0.0034759818 -0.003963706 -0.0028594919
000170 40 da cd bb 80 97 86 b8 98 e2 c6 ba 00 90 3f 39
       -0.006282121 -6.417837e-05 -0.0015173731 0.00018268824
000180 dc a7 aa bb 12 f9 f0 bb 4a 33 a6 bb fc 1d 62 bb
       -0.0052079987 -0.0073539102 -0.005072032 -0.0034502735
000190 68 64 58 3b 8a bd 99 bb 20 19 ec b9 c4 77 92 3b
       0.003301883 -0.0046917843 -0.00045032147 0.0044698436
0001a0 b0 7a 1b 3a 48 8d 2e 3b 22 59 a5 bb ac 25 f6 3b
       0.00059310626 0.0026634503 -0.005046026 0.007511815
0001b0 22 69 87 bb c8 11 bc 3b e0 c1 62 3b 10 bf 95 ba
       -0.004132406 0.0057394244 0.0034600422 -0.0011424739
0001c0 20 d4 74 3b 78 d1 76 bb dc 5d 8c bb 5e 68 96 3b
       0.0037357882 -0.0037661474 -0.00428365 0.0045900783
0001d0 00 14 6f 3b 5e 01 aa 3b 24 fa 76 bb b0 da e8 3b
       0.0036480427 0.0051881513 -0.0037685717 0.0071061477
0001e0 54 69 dd 3b 42 dc e2 3b b8 e5 d7 3a e4 b3 25 bb
       0.006756941 0.0069232294 0.001647166 -0.0025284225
0001f0 54 31 91 bb 90 72 06 3b 40 18 03 3b a8 7b 70 bb
       -0.004430929 0.0020515062 0.0020003468 -0.0036694799
000200 5a dd f9 bb a2 1d ab bb c6 5d dc 3b a6 b2 99 bb
       -0.007625264 -0.0052220384 0.006725046 -0.004690486
000210 dc db 14 3b ac a1 81 bb f0 99 35 ba 34 29 49 bb
       0.0022714054 -0.0039560404 -0.00069275405 -0.0030694725
000220 c2 87 df bb 4a 0c ba bb 68 65 b6 3b 9c 98 85 3b
       -0.0068216035 -0.0056777345 0.005566288 0.0040770303
000230 ee e6 91 bb d4 72 1c 3b 20 c3 9a 3b 68 9c 27 bb
       -0.004452578 0.0023872154 0.0047229677 -0.0025575403
000240 60 a7 9c ba d0 fc d2 3a a4 69 25 3b fc 37 a7 bb
       -0.0011951737 0.0016097073 0.0025239969 -0.0051031094
000250 30 9f c5 3b 50 21 e5 bb 78 07 15 3b 54 b9 e1 3b
       0.0060309395 -0.0069924966 0.0022740047 0.006888548
000260 a0 7e 50 3a ec 64 af 3b 90 31 17 bb 20 88 c8 bb
       0.0007953439 0.005352607 -0.0023070313 -0.006119743
000270 62 7b ee bb f8 44 a9 bb 12 d9 b3 bb 80 f5 14 3b
       -0.007277892 -0.0051656924 -0.0054885233 0.0022729337
000280 6c 1e 49 bb 80 42 52 39 14 8c 90 bb 18 80 f1 3a
       -0.00306883 0.00020051934 -0.00441123 0.0018425016
000290 06 e7 9b 3b 00 a6 9f b9 24 d7 a8 bb 02 1d d2 bb
       0.0047577647 -0.00030450523 -0.0051526 -0.0064121494
0002a0 f6 13 93 bb 9c 7f 86 bb 4a fb 90 3b 50 10 fc 3a
       -0.0044884635 -0.0041045677 0.0044244872 0.0019230936
0002b0 7a 31 ab bb 4e 7b e2 bb d4 f8 23 bb b6 6d c9 bb
       -0.005224404 -0.0069116717 -0.002502014 -0.0061471118
0002c0 e2 a2 e6 bb c0 f9 e7 b9 44 6c 83 3b 72 c6 96 3b
       -0.00703846 -0.00044245832 0.004010709 0.0046012932
0002d0 18 55 9a bb 64 88 c3 3b a4 ad 9e 3b 70 11 f2 3a
       -0.004709851 0.0059671868 0.004842477 0.0018468332
0002e0 48 6b 81 bb f4 51 03 bb 34 19 2a bb 4e cb 8a bb
       -0.0039495565 -0.0020037862 -0.0025954964 -0.0042356616
0002f0 28 aa 76 bb 98 87 de ba f6 5a f7 bb 0c e6 ec 3b
       -0.0037638042 -0.0016977666 -0.007548685 0.007229572
000300 90 ac 02 3a 58 46 20 bb 50 12 d0 3a 2c 34 78 bb
       0.000498482 -0.002445599 0.0015874598 -0.0037872894
000310 60 44 7c ba 20 72 77 bb d6 a1 d8 bb 64 37 02 3b
       -0.0009623226 -0.0037757233 -0.006611089 0.0019869441
000320 b4 e7 46 bb 8e c1 8a 3b d4 cb a8 bb fa 72 de 3b
       -0.0030350508 0.0042344993 -0.0051512513 0.0067886086
000330 c6 d9 9d 3b 40 d0 53 ba 88 15 c5 3b f4 3b 30 bb
       0.0048172204 -0.0008080043 0.0060145296 -0.0026891204
000340 68 5c 1c bb 5e 2f d7 bb 20 07 1c 3a 76 a8 be 3b
       -0.002385879 -0.006566926 0.00059519894 0.005818422
000350 d0 c7 59 3b 06 26 db bb 70 d6 74 ba 06 83 e5 3b
       0.003323067 -0.0066878824 -0.0009339815 0.0070041446
000360 80 ec a1 3a 78 fb 7c bb 76 9e c3 3b d4 f8 24 3b
       0.0012353808 -0.0038602035 0.0059698178 0.0025172727
000370 6a 7b b7 bb 40 f0 6e bb 6c a3 5e 3b 5e 06 ab 3b
       -0.005599429 -0.0036459118 0.0033971919 0.005219265
000380 d0 31 c5 bb 54 0a 40 3b ca 2e b7 bb 78 32 f2 3a
       -0.006017901 0.002930303 -0.0055902945 0.0018478176
000390 24 ce 70 3b e0 c5 89 b9 6a 76 cd bb 94 0e 4d bb
       0.0036743963 -0.00026278105 -0.0062702196 -0.0031289207
0003a0 f8 f2 aa 3b a0 0e e7 bb 4e 84 ef 3b 00 4e 3e 39
       0.0052169524 -0.007051304 0.007309473 0.0001814887
0003b0 70 05 d0 ba c0 03 8d b9 d8 ff 90 3a 44 bc 1f bb
       -0.0015870761 -0.0002689641 0.0011062576 -0.002437369
0003c0 30 2e d0 3a 90 ed 2f bb 64 07 bf bb 32 e7 fd 3b
       0.0015882906 -0.002684448 -0.0058297385 0.007748508
0003d0 ac a6 22 3b 08 ed ba ba 50 3c 14 3a 10 03 4d 3a
       0.0024818582 -0.0014261315 0.0005654739 0.0007820586
0003e0 9a a4 f6 3b fe 38 bf bb 0a ee 98 bb 50 db 94 3a
       0.0075269463 -0.0058356514 -0.0046670483 0.0011356864
0003f0 80 4a e2 38 10 1f f7 3b 60 28 29 ba a0 7e ae bb
       0.000107903965 0.0075415447 -0.0006452855 -0.0053251535

fc1.bias f4 [2]
000000 4e c4 93 bb f8 cf 49 bb
       -0.0045094853 -0.0030794125
